example_use_pytorch/EncodeModel.pth (torch_old, 13736 bytes, 21 tensors)

encode.0.weight f4 [16, 1, 7, 7]
0.008077204 0.03817134 0.002095299 -0.091155775 -0.023226457 0.056599867 0.032372598 -0.038222305
-0.091289476 -0.05751978 -0.12371931 0.031245627 0.019716743 0.13107274 0.0076506054 -0.034728248
-0.069540694 -0.06317962 -0.0012649 0.06886576 0.20871916 -0.05353168 -0.05178404 -0.11722338
-0.05736355 0.0056233415 0.09661162 0.17334634 -0.09529044 -0.046531063 -0.121672206 -0.06232591
0.072315454 0.16543244 0.20821323 -0.06621669 -0.05534155 -0.15714328 -0.022465546 0.05465419
0.11885404 0.25206837 -0.07542318 -0.025582112 -0.13402157 0.024640704 0.07764622 0.17242143
0.24607949 -0.009957045 -0.018849874 -0.096100725 -0.08458225 -0.0048144488 -0.06965594 -0.12539938
-0.027933607 -0.048026714 -0.00762372 -0.0424416 0.04412036 0.031034129 -0.0473845 0.061740093
0.07981776 0.037945185 0.024493648 -0.03427417 -0.024838137 -0.026402717 0.08183635 0.11119645
0.056970485 0.09064483 0.09188204 0.0110177295 -0.010597608 0.15043357 0.09636614 0.07380476
0.03915193 0.09400159 0.014036651 0.09050259 0.07306497 -0.027919881 -0.02187431 0.04130144
0.16322118 0.09080792 0.16952376 0.17675778 -0.008619124 0.007696148 0.03160393 0.22942702
0.29832992 0.13212107 0.029690722 0.011648876 -0.007047558 0.0054420675 -0.010616404 -0.05603995
-0.06505073 0.043054532 -0.06751769 -0.06851329 -0.030092267 -0.00013512335 0.004238334 -0.0073476466
-0.008859305 0.014956309 -0.012086345 -0.020396551 0.0327168 0.0020101466 0.038682748 0.006605752
0.025580663 0.013578952 0.041916613 0.13586067 -0.021172034 -0.011373205 0.019396685 0.041650664
0.07360854 0.19342294 0.22576663 0.09112883 -0.0239306 -0.027191516 0.06948486 0.11566485
0.25677493 0.25480017 0.052028403 0.0073711555 0.02599727 0.0709846 0.10658458 0.15604897
0.17815025 0.100429185 -0.17921086 -0.25214228 -0.011537682 -0.06619266 -0.045651518 -0.14690965
-0.04906878 -0.11365533 -0.014614506 -0.03127989 -0.14640291 -0.09680629 -0.106013365 -0.026829284
-0.050633013 -0.040761165 -0.15120655 -0.042036764 -0.13173702 -0.064590104 -0.011469742 -0.09153137
-0.16993241 -0.17096376 -0.21827398 -0.0056061316 -0.0025364172 0.11743361 0.053975884 -0.15274534
-0.01917012 -0.032902543 0.011657064 -0.003469881 0.009525933 0.13705863 -0.09887348 0.008070334
-0.024761165 -0.028072828 -0.027581401 0.029566828 0.080904946 -0.22406992 -0.1245864 -0.08366596
0.075388856 0.09002177 0.11210186 0.14356594 0.030871369 0.048321974 -0.019203521 0.071590714
0.097486176 0.08458214 0.18328507 0.0038114735 0.0012711453 0.04577858 -0.031874735 0.052211642
0.027953308 0.13359313 0.091248065 0.06617843 0.10832183 0.07982238 0.14479406 0.07197326
0.12570465 0.19977194 0.12264646 0.07372664 0.07964152 0.07483317 0.040312167 0.0953673
0.20824693 0.15164417 0.072558865 0.0094542345 0.0077135838 -0.059241462 0.09430917 -0.014703565
-0.05564155 -0.022066817 -0.025555559 0.017930444 -0.028525136 0.095343925 -0.030267738 -0.069458924
-0.07147294 -0.024634626 0.048742574 0.029040858 0.17547394 0.025573706 0.008811605 0.09036441
0.059983093 0.08217376 0.08537308 0.009952935 -0.022462673 0.061750583 0.060443055 0.1307008
00000000: 4056 043c 8d59 1c3d 4951 093b e1af babd
00000010: 6945 bebc 43d5 673d 2199 043d fe8e 1cbd
00000020: faf5 babd dc99 6bbd 8d60 fdbd d4f6 ff3c
00000030: 0285 a13c ef37 063e eeb1 fa3b 353f 0ebd
00000040: 5a6b 8ebd 5164 81bd 00cb a5ba 7e09 8d3d
00000050: 7aba 553e 0944 5bbd 801b 54bd d012 f0bd
00000060: 0bf6 6abd 0244 b83b 50dc c53d b481 313e
00000070: a227 c3bd 5b97 3ebd 472f f9bd 7449 7fbd
00000080: 201a 943d 1f67 293e d935 553e 9e9c 87bd
00000090: d2ad 62bd 2bea 20be aa09 b8bc 12dd 5f3d
000000a0: bf69 f33d 1b0f 813e 7877 9abd 9491 d1bc
000000b0: f33c 09be 4ddb c93c fb04 9f3d 3e8f 303e
000000c0: 43fc 7b3e e022 23bc 0d6b 9abc 75d0 c4bd
000000d0: 7539 adbd 86c2 9dbb c6a7 8ebd b268 00be
000000e0: 05d5 e4bc a9b7 44bd 66d0 f9bb 3ed7 2dbd
000000f0: 8db7 343d 493b fe3c 4016 42bd 2ee3 7c3d
00000100: 7e77 a33d 696c 1b3d e7a6 c83c 1263 0cbd
00000110: 5979 cbbc 834a d8bc d199 a73d f7ba e33d
00000120: e259 693d ffa3 b93d a72c bc3d b583 343c
00000130: 97a1 2dbc 420b 1a3e 9c5b c53d f326 973d
00000140: c65d 203d e883 c03d fbf9 653c 6c59 b93d
00000150: 16a3 953d 3cb8 e4bc c131 b3bc b32b 293d
00000160: 7423 273e 81f9 b93d a397 2d3e feff 343e
00000170: 3a37 0dbc f82f fc3b 1f73 013d ebee 6a3e
00000180: b3be 983e bf4a 073e f539 f33c edda 3e3c
00000190: 34ef e6bb 5f53 b23b 6df0 2dbc 268a 65bd
000001a0: 5139 85bd f359 303d b746 8abd b250 8cbd
000001b0: 0f84 f6bc e6af 0db9 b9e1 8a3b 87c4 f0bb
000001c0: 9e26 11bc 4f0b 753c ce05 46bc ab16 a7bc
000001d0: 0d02 063d aabc 033b cd71 1e3d 1075 d83b
000001e0: 8a8e d13c 417a 5e3c c1b0 2b3d 0f1f 0b3e
000001f0: f970 adbc ae56 3abc cce5 9e3c e399 2a3d
00000200: 13c0 963d aa10 463e 5e2f 673e c1a1 ba3d
00000210: 1b0a c4bc bec0 debc 144e 8e3d b1e1 ec3d
00000220: 0178 833e 2b75 823e bc1b 553d bc89 f13b
00000230: 3af8 d43c 6060 913d 0449 da3d 4dcb 1f3e
00000240: 056d 363e d1ad cd3d 0d83 37be cb18 81be
00000250: 8c08 3dbc 0490 87bd 16fd 3abd 7c6f 16be
00000260: 58fc 48bd 20c4 e8bd ae71 6fbc 581f 00bd
00000270: a5ea 15be 6042 c6bd 891d d9bd 16c9 dbbc
00000280: 9064 4fbd 2ef5 26bd e4d5 1abe be2e 2cbd
00000290: 12e6 06be d147 84bd 96eb 3bbc cd74 bbbd
000002a0: c302 2ebe 2011 2fbe 3783 5fbe a4b3 b7bb
000002b0: 053a 26bb 0881 f03d d115 5d3d 4669 1cbe
000002c0: a80a 9dbc d1c4 06bd 45fd 3e3c f166 63bb
000002d0: a912 1c3c 1959 0c3e 2e7e cabd 6f39 043c
000002e0: edd7 cabc fdf8 e5bc 64f2 e1bc 2236 f23c
000002f0: 7eb1 a53d 9672 65be 2827 ffbd 0f59 abbd
00000300: 7965 9a3d 555d b83d a995 e53d f302 133e
00000310: f4e5 fc3c 43ed 453d b450 9dbc 279e 923d
00000320: d5a6 c73d 6739 ad3d 15af 3b3e eac9 793b
00000330: 8f9c a63a 5282 3b3d 158f 02bd e0db 553d
00000340: 56fe e43c a3cc 083e 44e0 ba3d 8f88 873d
00000350: d6d7 dd3d ea79 a33d e544 143e b766 933d
00000360: b8b8 003e 0491 4c3e 112e fb3d fefd 963d
00000370: 181b a33d 2242 993d 5f1e 253d ee4f c33d
00000380: af3e 553e 9c48 1b3e be99 943d efe5 1a3c
00000390: 3bc2 fc3b 2da7 72bd 2b25 c13d 39e7 70bc
000003a0: 65e8 63bd 78c5 b4bc e459 d1bc dee2 923c
000003b0: 8cad e9bc ad43 c33d 0cf4 f7bc 7b40 8ebd
000003c0: 6860 92bd 8ece c9bc 4ba6 473d 18e7 ed3c
000003d0: 71af 333e f37f d13c 8d5e 103c fa10 b93d
000003e0: d5b0 753d b74a a83d 15d8 ae3d a311 233c
000003f0: a403 b8bc 2eee 7c3d 2393 773d 6ed6 053e

encode.0.bias f4 [16]
-0.084427096 -0.044895798 0.022518797 -0.067650564 -0.026039995 -0.041555766 0.057052497 -0.057194036
0.113853425 -0.12045995 0.1272205 -0.06595806 0.0036159195 -0.13296014 0.08797425 -0.14409497
00000000: 1de8 acbd a8e4 37bd 5779 b83c 618c 8abd
00000010: d451 d5bc 6136 2abd e1af 693d 4b44 6abd
00000020: fc2b e93d b5b3 f6bd 1746 023e 0515 87bd
00000030: 10f9 6c3b b426 08be d82b b43d a28d 13be

encode.1.weight f4 [16]
0.36724573 0.23832862 0.5754166 0.81116146 0.56032515 0.55953217 0.7559792 0.43553272
0.5636476 0.42521417 0.85712814 0.18760316 0.57795626 0.35087928 0.62809104 0.6549404
00000000: a207 bc3e 6b0c 743e 814e 133f 47a8 4f3f
00000010: 7871 0f3f 803d 0f3f da87 413f 25fe de3e
00000020: 364b 103f acb5 d93e c06c 5b3f 0b1b 403e
00000030: f1f4 133f 73a6 b33e 93ca 203f 2daa 273f

encode.1.bias f4 [16]
0.062076304 0.19064993 0.43803808 -0.5492006 0.24860013 0.14074129 -0.40421692 -0.2680906
0.43450254 0.2172603 -0.15406772 0.16283207 -0.419118 -0.22445956 0.08035085 -0.3159536
00000000: b943 7e3d bc39 433e 8746 e03e 6998 0cbf
00000010: 0891 7e3e 7c1e 103e 85f5 cebe 2c43 89be
00000020: 1e77 de3e 7c79 5e3e eec3 1dbe 73bd 263e
00000030: a296 d6be bad8 65be fd8e a43d acc4 a1be

encode.1.running_mean f4 [16]
0.0256747 0.3603528 0.4005331 -0.5032023 0.50130886 0.77061766 -0.61144537 -0.32606986
0.6922352 0.13354123 -0.4906203 0.34450483 -0.4691784 -0.41297767 0.22052985 -0.3379086
00000000: c053 d23c 2a80 b83e ad12 cd3e ded1 00bf
00000010: c755 003f 3347 453f af87 1cbf a1f2 a6be
00000020: 5336 313f 08bf 083e 9532 fbbe f062 b03e
00000030: 2738 f0be cf71 d3be 94d2 613e 5b02 adbe

encode.1.running_var f4 [16]
0.39221877 0.2613343 0.32600182 0.41720557 0.30240583 0.8042448 0.4016729 0.20390494
0.5680838 0.25770646 0.561616 0.24907902 0.39031053 0.19889972 0.21174636 0.15849341
00000000: e6d0 c83e 9ccd 853e b6e9 a63e f89b d53e
00000010: f0d4 9a3e fde2 4d3f 12a8 cd3e 75cc 503e
00000020: f16d 113f 1af2 833e 11c6 0f3f 920e 7f3e
00000030: c8d6 c73e 5eac 4b3e 0ad4 583e 194c 223e

encode.4.weight f4 [4, 16, 3, 3]
0.007881405 0.010858855 0.010249541 0.014803485 0.05257879 0.0126452595 0.03076152 0.055364717
0.13156031 -0.044530947 0.0020508724 -0.030011505 0.0464857 0.06298859 0.020229539 0.01216839
0.04063528 0.1248072 0.007115243 -0.052302096 -0.09247608 -0.0984823 0.037936214 0.01312895
0.024656547 -0.05713482 -0.035203297 0.12413289 0.0526658 0.025597824 0.06830308 -0.013682485
0.03869335 0.04221283 0.06858455 0.041176375 -0.030019335 -0.0046143658 0.007432825 0.014317183
-0.03368807 0.011603762 -0.00861388 -0.18194439 0.095217995 -0.04509908 -0.005928371 0.0042426675
-0.08386923 0.06744622 -0.007173513 0.14140959 0.09735007 0.090629354 0.043567486 -0.04531987
0.07739977 0.18946521 -0.16937967 0.04715863 -0.09195617 -0.40993252 0.06801328 -0.048339095
-0.12790322 -0.0029407397 0.040587515 0.12190005 0.09199785 -0.079320386 0.044209547 -0.17252915
0.051015235 0.04039864 -0.00603069 -0.021896008 -0.008750962 -0.07600542 0.04941778 0.051721442
-0.16470653 0.037186485 -0.0323378 0.020366685 0.014044672 -0.04720068 0.007608383 -0.12431937
0.03615467 0.14108214 -0.007853715 0.008622243 0.034407344 -0.017143229 0.0043971706 0.036513753
0.121373035 -0.117909335 -0.18814251 -0.03073589 0.06990764 0.07873033 -0.055833865 0.0059628137
-0.057371873 -0.003734734 0.1979123 0.09114836 0.045044944 -0.09953661 -0.32965666 -0.0953152
-0.031238962 -0.10585739 -0.025063891 0.07706024 -0.21755487 -0.10976484 0.07233896 -0.054976344
-0.13202992 -0.032112893 -0.017832657 -0.19479667 0.12392016 0.014038911 -0.012868709 -0.010556648
-0.025257412 0.03145068 0.010525835 -0.012132756 0.0880589 0.08404152 -0.0013603813 0.027757999
-0.0005093068 0.015320795 0.028283734 -0.056808632 -0.12317144 0.010622162 0.029444404 -0.113315396
0.014827737 -0.059969336 -0.051051944 -0.060557608 -0.023708684 -0.06586026 0.004662504 0.026622934
0.12206862 0.0039831847 0.12258146 0.0038373352 0.06064045 -0.07578918 0.0546215 -0.04019927
-0.040729426 -0.029771285 0.089217834 -0.014317041 -0.012599794 -0.124260284 -0.020706872 -0.021997228
0.06764148 0.052925035 -0.043467302 -0.061097804 0.07447556 -0.05952631 -0.11193524 -0.045698415
-0.03499079 -0.06769567 0.06158854 -0.03077355 -0.020935446 -0.002105257 -0.0040607774 0.0017000005
-0.057102904 -0.09104276 0.069642626 -0.004247151 -0.06093725 -0.021186551 0.010662563 0.041935794
0.039553575 0.08342755 0.11222675 0.106397495 0.07456744 -0.08268452 -0.1311959 -0.13961792
-0.03901925 -0.020354277 0.1986913 0.1698866 0.12893894 0.09438548 0.30713934 0.09435228
0.045003094 0.025239946 0.019819295 0.010771011 -0.014427666 -0.121896155 0.036988545 0.016684098
0.056308143 -0.014115816 0.029346991 0.09148951 -0.08654857 -0.00073172717 -0.15840307 -0.080041595
0.08636949 -0.06802161 -0.008747743 0.014706264 0.006764121 -0.028360467 0.021837272 0.022671273
-0.015657099 0.07259571 -0.0030530037 -0.01984016 -0.003056646 0.0020762614 0.1511737 0.03115421
0.007335836 0.023049803 -0.067748986 -0.021263843 -0.06843413 -0.0049579367 -0.047322858 0.035074517
-0.11932174 -0.16543514 -0.07411031 -0.08074943 0.03512491 0.17073812 0.069480665 -0.065636046
00000000: 0221 013c 57e9 313c b1ed 273c 518a 723c
00000010: db5c 573d 102e 4f3c 95ff fb3c 1dc6 623d
00000020: bfb7 063e 1566 36bd ee67 063b b0da f5bc
00000030: ca67 3e3d 2900 813d 6bb8 a53c ed5d 473c
00000040: 2e71 263d eb9a ff3d fc26 e93b b93a 56bd
00000050: 1964 bdbd 17b1 c9bd 0163 1b3d cf1a 573c
00000060: 87fc c93c 3306 6abd 5531 10bd 6239 fe3d
00000070: 18b8 573d 87b2 d13c 7ce2 8b3d 802c 60bc
00000080: eb7c 1e3d 5ce7 2c3d 0e76 8c3d 8fa8 283d
00000090: 1ceb f5bc 1b34 97bb 0e8f f33b 9e92 6a3c
000000a0: 80fc 09bd b51d 3e3c 3b21 0dbc a14f 3abe
000000b0: a701 c33d d0b9 38bd c842 c2bb 1306 8b3b
000000c0: a1c3 abbd 3e21 8a3d ca0f ebbb adcd 103e
000000d0: 795f c73d e29b b93d d273 323d 54a1 39bd
000000e0: c583 9e3d 2b03 423e dd71 2dbe 6829 413d
000000f0: 8453 bcbd ade2 d1be 8c4a 8b3d 37ff 45bd
00000100: 10f9 02be 6db9 40bb 183f 263d bca6 f93d
00000110: 5e69 bc3d ba72 a2bd 1215 353d 7bab 30be
00000120: 5af5 503d 0b79 253d 189d c5bb 425f b3bc
00000130: 3260 0fbc bba8 9bbd 4c6a 4a3d ddd9 533d
00000140: d4a8 28be db50 183d a474 04bd 09d8 a63c
00000150: a01b 663c 8055 41bd be4f f93b 279b febd
00000160: eb16 143d d677 103e deac 00bc 4f44 0d3c
00000170: b7ee 0c3d f56f 8cbc 2416 903b 728f 153d
00000180: 6d92 f83d 737a f1bd 6ea8 40be d5c9 fbbc
00000190: bd2b 8f3d 5e3d a13d 0db2 64bd b563 c33b
000001a0: c5fe 6abd 70c2 74bb 86a9 4a3e feab ba3d
000001b0: 0c81 383d dad9 cbbd c2c8 a8be 9e34 c3bd
000001c0: dae8 ffbc c2cb d8bd ca52 cdbc c2d1 9d3d
000001d0: b4c6 5ebe 63cc e0bd 7326 943d e02e 61bd
000001e0: da32 07be cf88 03bd cb15 92bc c778 47be
000001f0: dac9 fd3d 7603 663c 47d7 52bc caf5 2cbc
00000200: a2e8 cebc 6ed2 003d 8d74 2c3c 78c8 46bc
00000210: 3958 b43d f61d ac3d d24e b2ba be64 e33c
00000220: 0083 05ba 1204 7b3c 4ab3 e73c 2bb0 68bd
00000230: 4f41 fcbd 9408 2e3c 6435 f13c e711 e8bd
00000240: 09f0 723c 68a2 75bd d81b 51bd 410b 78bd
00000250: b738 c2bc bee1 86bd ebc7 983b 5718 da3c
00000260: 1dff f93d 6085 823b fd0b fb3d cd7b 7b3b
00000270: 1f62 783d 5c37 9bbd cbba 5f3d fda7 24bd
00000280: e6d3 26bd e9e2 f3bc d7b7 b63d 0692 6abc
00000290: 5e6f 4ebc 2d7c febd 75a1 a9bc 8833 b4bc
000002a0: 9e87 8a3d ecc7 583d c50a 32bd b141 7abd
000002b0: a486 983d dcd1 73bd 4e3e e5bd 432e 3bbd
000002c0: 8152 0fbd 07a4 8abd 4444 7c3d d018 fcbc
000002d0: d080 abbc 5af8 09bb 4510 85bb 8dd2 de3a
000002e0: bce4 69bd a074 babd cba0 8e3d af2b 8bbb
000002f0: 5699 79bd 6b8f adbc 08b2 2e3c dec4 2b3d
00000300: ee02 223d 10dc aa3d 23d7 e53d eee6 d93d
00000310: d0b6 983d 8056 a9bd 3858 06be 00f8 0ebe
00000320: a6d2 1fbd 03be a6bc bb75 4b3e c1f6 2d3e
00000330: 9208 043e 2d4d c13d 5e41 9d3e c53b c13d
00000340: 2a55 383d 01c4 ce3c 135c a23c e578 303c
00000350: 0462 6cbc b1a4 f9bd 4d81 173d 17ad 883c
00000360: 5ea3 663d 0646 67bc 1a69 f03c da5e bb3d
00000370: 6040 b1bd 61d1 3fba 6a34 22be d9ec a3bd
00000380: 7de2 b03d ea4e 8bbd b252 0fbc 8bf2 703c
00000390: 8fa5 dd3b 3654 e8bc 14e4 b23c 1bb9 b93c
000003a0: 5143 80bc 0fad 943d e714 48bb d587 a2bc
000003b0: 0352 48bb e311 083b 47cd 1a3e 1d37 ff3c
000003c0: 7461 f03b f1d2 bc3c fbbf 8abd 8331 aebc
000003d0: 3127 8cbd 3076 a2bb 9dd5 41bd 4caa 0f3d
000003e0: f55e f4bd d467 29be 25c7 97bd f55f a5bd
000003f0: 23df 0f3d f9d5 2e3e e14b 8e3d 316c 86bd

encode.4.bias f4 [4]
0.016676934 0.075711906 0.026550496 0.059714492
00000000: 119e 883c d80e 9b3d 6d80 d93c 2f97 743d

encode.5.weight f4 [4]
0.45515078 0.29216048 0.42327404 0.5426688
00000000: 8609 e93e 0f96 953e 60b7 d83e 58ec 0a3f

encode.5.bias f4 [4]
0.5809503 0.5704046 0.59802186 0.79897696
00000000: 29b9 143f 0906 123f f617 193f c189 4c3f

encode.5.running_mean f4 [4]
0.07036593 0.034227144 -0.1663996 -0.62292224
00000000: 031c 903d c331 0c3d a864 2abe d577 1fbf

encode.5.running_var f4 [4]
0.10397043 0.06535133 0.10303363 0.1965584
00000000: 73ee d43d ebd6 853d 4c03 d33d 9b46 493e

encode.8.weight f4 [4, 4, 2, 2]
-0.020210866 -0.15983184 0.0474678 0.24439625 -0.031882185 -0.018576356 -0.055418644 0.22423376
0.034389757 -0.10128323 0.27217025 0.118481174 -0.11663134 -0.020179993 0.05282224 -0.23699081
-0.14567852 -0.14874847 -0.05557339 0.35354906 0.03409052 -0.09154518 0.23294313 0.41729343
0.06494 -0.12031542 0.071831256 0.13694495 -0.12344118 -0.006032848 -0.0044545177 -0.24592344
-0.10197276 -0.028221708 -0.0126608 0.2514688 -0.24938808 0.33245757 0.12858282 0.017971793
0.034596797 0.26303834 -0.016499579 0.11294176 -0.3752756 -0.08780361 0.10070679 -0.07768924
-0.058949854 0.08998574 0.028183116 0.32964888 -0.027680501 0.02361643 0.03246734 0.122379854
-0.008213257 0.09237006 0.20708224 -0.20033982 -0.16009624 -0.13699915 0.026657568 0.44583327
00000000: 4291 a5bc f5aa 23be 996d 423d 0343 7a3e
00000010: e596 02bd 712d 98bc a9fe 62bd 899d 653e
00000020: 46dc 0c3d 956d cfbd e659 8b3e 42a6 f23d
00000030: 69dc eebd 8350 a5bc 225c 583d b8ad 72be
00000040: c02c 15be 8551 18be eca0 63bd 6204 b53e
00000050: 80a2 0b3d 0a7c bbbd a588 6e3e 7ca7 d53e
00000060: 43ff 843d ee67 f6bd 441c 933d 4c3b 0c3e
00000070: bbce fcbd 32af c5bb 34f7 91bb 5bd3 7bbe
00000080: 18d7 d0bd 3631 e7bc 3e6f 4fbc 85c0 803e
00000090: 975f 7fbe e137 aa3e 37ab 033e 9539 933c
000000a0: 5fb5 0d3d f6ac 863e 202a 87bc 024e e73d
000000b0: 2024 c0be 61d2 b3bd 5d3f ce3d 891b 9fbd
000000c0: 6775 71bd 724a b83d 47e0 e63c bdc7 a83e
000000d0: 38c2 e2bc 3e77 c13c 79fc 043d 4aa2 fa3d
000000e0: e690 06bc 842c bd3d 5e0d 543e e225 4dbe
000000f0: 45f0 23be 8149 0cbe f960 da3c 4244 e43e

encode.8.bias f4 [4]
-0.14878003 -0.08478151 -0.1162764 -0.03350601
00000000: cb59 18be eea1 adbd 5222 eebd 993d 09bd

encode.9.weight f4 [4]
0.45512253 0.20818965 0.372532 0.3077977
00000000: d205 e93e ab2f 553e 84bc be3e a997 9d3e

encode.9.bias f4 [4]
0.68972033 0.3656457 0.63127935 0.3278796
00000000: 8391 303f ea35 bb3e 869b 213f d6df a73e

encode.9.running_mean f4 [4]
0.024890305 0.10205361 0.13415626 0.67330825
00000000: c1e6 cb3c 7c01 d13d 4260 093e ee5d 2c3f

encode.9.running_var f4 [4]
0.027322758 0.046935778 0.07156259 0.062388614
00000000: fad3 df3c bb3f 403d 688f 923d 348b 7f3d

decode.0.weight f4 [4, 1, 5, 5]
-0.040663533 -0.29271507 -0.016771324 -0.40848905 -0.017997738 -0.042783286 0.029715389 0.09221155
0.010305273 0.04387785 0.09137321 -0.103740275 -0.12833028 0.0047432813 0.05313482 0.25890645
0.06846499 0.062992446 -0.09378047 0.058673337 0.07238064 0.1509251 0.14592595 0.09132721
0.0065852166 0.078320324 -0.5578722 -0.32364997 -0.3362834 -0.0022505925 0.025616141 -0.085745454
0.22063558 -0.2069031 -0.026014611 -0.25483495 0.1850924 0.054102197 0.054950614 0.097033426
-0.45667562 -0.27251154 -0.28623873 -0.0112688085 -0.050859906 -0.2000357 -0.09126779 0.007714675
0.082885824 0.05890578 0.06478586 -0.26726186 0.36806428 -0.17244624 0.019078966 0.037964724
0.06286993 -0.18312623 0.17535803 0.056475643 0.060008302 -0.009544065 0.010352559 -0.02509895
-0.017997084 -0.05340212 0.005685589 0.1334023 0.08604396 0.057517257 -0.05225224 -0.094561
-0.05235412 -0.03999121 -0.018407423 -0.050605584 -0.18799692 0.019976962 -0.018307894 0.082592025
-0.021458821 -0.012178303 -0.07193476 -0.05264614 -0.16858551 -0.023306949 -0.02027646 -0.03973521
-0.09962562 -0.15237898 0.030640177 0.0776869 -0.11912176 -0.12793316 -0.23298718 0.042160567
0.07143761 0.061889295 0.004222714 0.00520171
00000000: ce8e 26bd c0de 95be 0464 89bc 7a25 d1be
00000010: fe6f 93bc 873d 2fbd b06d f33c 69d9 bc3d
00000020: 73d7 283c 43b9 333d e121 bb3d c875 d4bd
00000030: 0369 03be 876d 9b3b e6a3 593d 638f 843e
00000040: 5f37 8c3d 2f02 813d fa0f c0bd 7453 703d
00000050: 4d3c 943d 1c8c 1a3e 9d6d 153e c309 bb3d
00000060: cdc8 d73b 6866 a03d b6d0 0ebf 73b5 a5be
00000070: 562d acbe ad7e 13bb f1d8 d13c 509b afbd
00000080: 4bee 613e 68de 53be 981c d5bc ba79 82be
00000090: dd88 3d3e 449a 5d3d e513 613d 76b9 c63d
000000a0: 63d1 e9be a286 8bbe e28d 92be cfa0 38bc
000000b0: 7a52 50bd 29d6 4cbe 9bea babd 62cb fc3b
000000c0: 0bc0 a93d 3047 713d 73ae 843d 8cd6 88be
000000d0: ec72 bc3e bf95 30be 7e4b 9c3c e680 1b3d
000000e0: f3c1 803d 7185 3bbe 0e91 333e 0153 673d
000000f0: 44cb 753d b65e 1cbc c89d 293c 509c cdbc
00000100: 9f6e 93bc 2ebc 5abd 2d4e ba3b 9d9a 083e
00000110: d137 b03d 3797 6b3d 7206 56bd 33a9 c1bd
00000120: 4671 56bd d3cd 23bd 2acb 96bc cd47 4fbd
00000130: 4482 40be baa6 a33c 70fa 95bc 0226 a93d
00000140: 69ca afbc 8187 47bc 8852 93bd 7ba3 57bd
00000150: aea1 2cbe 37ee bebc d21a a6bc 63c1 22bd
00000160: 8408 ccbd 3c09 1cbe 1c01 fb3c 4f1a 9f3d
00000170: 1cf6 f3bd e900 03be 3194 6ebe 8fb0 2c3d
00000180: e24d 923d a17f 7d3d b15e 8a3b 1b73 aa3b

decode.3.weight f4 [1, 1, 7, 7]
-0.03255314 -0.010714584 -0.14571576 0.00011017705 0.09516196 -0.054495525 -0.15204081 0.031959165
-0.2150341 -0.020113708 -0.032100447 -0.009503149 0.19250546 -0.019354472 -0.009312003 -0.025978012
0.08740801 -0.005169549 -0.08377078 0.19007696 0.079943895 -0.04854557 -0.15055744 -0.011631034
0.1418848 0.036336794 0.025798338 0.15266688 -0.06583803 -0.012421817 0.11459544 0.06898972
0.1164764 0.16800018 -0.06873408 -0.004080401 0.0152546875 0.024489015 0.14352675 0.13683029
0.010856868 0.12146242 -0.007270535 -0.04894715 -0.028629417 -0.045257565 -0.0338766 0.041103292
0.010424319
00000000: 7156 05bd 398c 2fbc 8336 15be da0e e738
00000010: 46e4 c23d b336 5fbd 96b0 1bbe 9de7 023d
00000020: e631 5cbe 81c5 a4bc c27b 03bd 19b3 1bbc
00000030: 2720 453e 458d 9ebc 5f91 18bc d7cf d4bc
00000040: f902 b33d 5265 a9bb 0490 abbd 89a3 423e
00000050: a0b9 a33d b8d7 46bd bb2b 1abe 1890 3ebc
00000060: 404a 113e e4d5 143d 0957 d33c b554 1c3e
00000070: 17d6 86bd e084 4bbc 04b1 ea3d 7b4a 8d3d
00000080: 2e8b ee3d 3d08 2c3e 74c4 8cbd e2b4 85bb
00000090: ccee 793c 309d c83c adf8 123e 3d1d 0c3e
000000a0: 01e1 313c 4ac1 f83d ab3d eebb cf7c 48bd
000000b0: 3d88 eabc ff5f 39bd 31c2 0abd ed5b 283d
000000c0: c3ca 2a3c

decode.6.weight f4 [1, 1, 6, 6]
-0.0009927547 0.028640984 0.041010417 0.026713705 -0.008946678 -0.06047866 0.037518505 0.12188436
0.13868293 0.0778648 -0.01207296 -0.08784114 0.099471994 0.20161897 0.19340353 0.09893252
-0.026852163 -0.08131793 0.12999457 0.1859981 0.15232429 0.05885936 -0.053186838 -0.06882959
0.06921981 0.05359685 0.0059763053 -0.05350276 -0.08179961 -0.047238514 -0.009725186 -0.04256942
-0.06270908 -0.07569326 -0.047109734 -0.012463904
00000000: 521f 82ba 7fa0 ea3c 8afa 273d b3d6 da3c
00000010: 1695 12bc 79b8 77bd 01ad 193d 829e f93d
00000020: e602 0e3e 9577 9f3d aacd 45bc 0ee6 b3bd
00000030: f9b7 cb3d 3475 4e3e 930b 463e 229d ca3d
00000040: 11f9 dbbc 048a a6bd 4c1d 053e 4976 3e3e
00000050: e6fa 1b3e 8316 713d 71da 59bd 87f6 8cbd
00000060: 1ec3 8d3d 5f88 5b3d e2d4 c33b b625 5bbd
00000070: 8e86 a7bd 2c7d 41bd 6356 1fbc 465d 2ebd
00000080: 9e6d 80bd 1105 9bbd 23f6 40bd 6735 4cbc
